…
{'self': CNN(), 'feature_height': 110, 'feature_width': 1, 'batch_size': 256, 'print_size': True, 'out_channels': [512, 512, 512, 512, 512, 512], 'kernels': [(10, 1), (10, 1), (10, 1), (10, 1), (10, 1), (10, 1)], 'pool_kernels': [(1, 1), (1, 1), (1, 1), (1, 1), (10, 1), (1, 1)], 'paddings': 'same', 'strides': [(1, 1), (1, 1), (1, 1), (1, 1), (1, 1), (1, 1), (1, 1), (1, 1), (1, 1), (1, 1), (1, 1), (1, 1)], 'pool_strides': [(1, 1), (1, 1), (1, 1), (1, 1), (4, 1), (1, 1)], 'dropouts': [0.3, 0.3, 0.3, 0.3, 0.3, 0.3], 'linear_output': [256, 256], 'linear_dropouts': [0.0, 0.0], '__class__': <class '__main__.CNN'>}
Sizes: 110 x 1	110 x 1	110 x 1	110 x 1	26 x 1	26 x 1	Linear input size: 13312
CNN(
  (CNN_layers): ModuleList(
    (0): Sequential(
      (0): Conv2dSame(
        (conv): Conv2d(4, 512, kernel_size=(10, 1), stride=(1, 1))
      )
      (1): BatchNorm2d(512, eps=1e-05, momentum=0.1, affine=True, track_running_stats=True)
      (2): ReLU()
      (3): Dropout(p=0.3, inplace=False)
    )
    (1): Sequential(
      (0): Conv2dSame(
        (conv): Conv2d(512, 512, kernel_size=(10, 1), stride=(1, 1))
      )
      (1): BatchNorm2d(512, eps=1e-05, momentum=0.1, affine=True, track_running_stats=True)
      (2): ReLU()
      (3): Dropout(p=0.3, inplace=False)
    )
    (2): Sequential(
      (0): Conv2dSame(
        (conv): Conv2d(512, 512, kernel_size=(10, 1), stride=(1, 1))
      )
      (1): BatchNorm2d(512, eps=1e-05, momentum=0.1, affine=True, track_running_stats=True)
      (2): ReLU()
      (3): Dropout(p=0.3, inplace=False)
    )
    (3): Sequential(
      (0): Conv2dSame(
        (conv): Conv2d(512, 512, kernel_size=(10, 1), stride=(1, 1))
      )
      (1): BatchNorm2d(512, eps=1e-05, momentum=0.1, affine=True, track_running_stats=True)
      (2): ReLU()
      (3): Dropout(p=0.3, inplace=False)
    )
    (4): Sequential(
      (0): Conv2dSame(
        (conv): Conv2d(512, 512, kernel_size=(10, 1), stride=(1, 1))
      )
      (1): BatchNorm2d(512, eps=1e-05, momentum=0.1, affine=True, track_running_stats=True)
      (2): ReLU()
      (3): MaxPool2d(kernel_size=(10, 1), stride=(4, 1), padding=0, dilation=1, ceil_mode=False)
      (4): Dropout(p=0.3, inplace=False)
    )
    (5): Sequential(
      (0): Conv2dSame(
        (conv): Conv2d(512, 512, kernel_size=(10, 1), stride=(1, 1))
      )
      (1): BatchNorm2d(512, eps=1e-05, momentum=0.1, affine=True, track_running_stats=True)
      (2): ReLU()
      (3): Dropout(p=0.3, inplace=False)
    )
  )
  (linear_layers): Sequential(
    (0): Sequential(
      (0): Linear(in_features=13312, out_features=256, bias=True)
      (1): ReLU()
      (2): Dropout(p=0.0, inplace=False)
    )
    (1): Sequential(
      (0): Linear(in_features=256, out_features=256, bias=True)
      (1): ReLU()
      (2): Dropout(p=0.0, inplace=False)
    )
    (2): Sequential(
      (0): Linear(in_features=256, out_features=1, bias=True)
    )
  )
)
16611073
### Model Training ###
		T loss	V loss	T r	V r	T rho	V rho
Epoch 1:	1.3174	1.3255	0.6716	0.7136	0.6909	0.7293	*
Epoch 2:	1.2353	1.1921	0.7153	0.732	0.7315	0.7503	*
Epoch 3:	1.2092	1.1782	0.7267	0.7382	0.7428	0.7552	*
Epoch 4:	1.1962	1.1802	0.7318	0.7387	0.748	0.7571	*
Epoch 5:	1.1876	1.1669	0.735	0.7423	0.7513	0.7594	*
Epoch 6:	1.1806	1.1731	0.7376	0.7436	0.7539	0.7605	*
…
